…
          "base_uri": "https://localhost:8080/"
        },
        "id": "U2R1oXvPjtRC",
        "outputId": "dd4687d1-985a-448d-8033-787840d55963"
      },
      "execution_count": null,
      "outputs": [
        {
          "output_type": "stream",
          "name": "stdout",
          "text": [
            "Model: \"sequential_2\"\n",
            "_________________________________________________________________\n",
            " Layer (type)                Output Shape              Param #   \n",
            "=================================================================\n",
            " conv2d_10 (Conv2D)          (None, 298, 298, 16)      448       \n",
            "                                                                 \n",
            " max_pooling2d_10 (MaxPoolin  (None, 149, 149, 16)     0         \n",
            " g2D)                                                            \n",
            "                                                                 \n",
            " conv2d_11 (Conv2D)          (None, 147, 147, 32)      4640      \n",
            "                                                                 \n",
            " max_pooling2d_11 (MaxPoolin  (None, 73, 73, 32)       0         \n",
            " g2D)                                                            \n",
            "                                                                 \n",
            " conv2d_12 (Conv2D)          (None, 71, 71, 64)        18496     \n",
            "                                                                 \n",
            " max_pooling2d_12 (MaxPoolin  (None, 35, 35, 64)       0         \n",
            " g2D)                                                            \n",
            "                                                                 \n",
            " conv2d_13 (Conv2D)          (None, 33, 33, 64)        36928     \n",
            "                                                                 \n",
            " max_pooling2d_13 (MaxPoolin  (None, 16, 16, 64)       0         \n",
            " g2D)                                                            \n",
            "                                                                 \n",
            " conv2d_14 (Conv2D)          (None, 14, 14, 64)        36928     \n",
            "                                                                 \n",
            " max_pooling2d_14 (MaxPoolin  (None, 7, 7, 64)         0         \n",
            " g2D)                                                            \n",
            "                                                                 \n",
            " flatten_2 (Flatten)         (None, 3136)              0         \n",
            "                                                                 \n",
            " dense_4 (Dense)             (None, 512)               1606144   \n",
            "                                                                 \n",
            " dense_5 (Dense)             (None, 1)                 513       \n",
            "                                                                 \n",
            "=================================================================\n",
            "Total params: 1,704,097\n",
            "Trainable params: 1,704,097\n",
            "Non-trainable params: 0\n",
            "_________________________________________________________________\n"
          ]
        }
…
